log_QUADROTOR_9D_MLP/model_best.pth.tar (torch, 755410 bytes, 42 tensors)

0.weight f4 [128, 6]
0	0x3d8cd7a6	0.06877069
1	0x3cdfaa07	0.027302755
2	0x3eb13db4	0.34617388
3	0xbe6109aa	-0.21976343
4	0xbe7e4048	-0.24829209
5	0x3dd562f2	0.10419263
6	0x3e6e249f	0.23256157
7	0x3c8077fe	0.015682217
8	0x3ebfed74	0.3748585
9	0xbe4a3c62	-0.19749597
10	0x3d43e854	0.047828987
11	0xbdc66109	-0.09686477
12	0xbeadcb54	-0.3394419
13	0x3e9503b2	0.29104382
14	0xbeb21963	-0.34784994
15	0xbde827d8	-0.113357246
16	0x3b05385f	0.002032779
17	0x3ea71915	0.32636324
18	0x3e667b11	0.22507884
19	0xbeb4f8c0	-0.3534603
20	0x3e0b6a1c	0.13614696
21	0xbe89a8b7	-0.26886532
22	0x3c74f4db	0.014950956
23	0xbd3a290f	-0.045449313
24	0x3eb52561	0.3538008
25	0x3d14acb2	0.036297508
26	0xbd8ef45a	-0.069802
27	0xbed8b687	-0.42326757
28	0xbe7b5a48	-0.24546158
29	0x3e811b5b	0.25216183
30	0x3e9c9b1b	0.30587086
31	0x3cee7286	0.029107343
32	0x3e165dfb	0.14684288
33	0xbe214e3d	-0.15752502
34	0x3c8dd154	0.01731173
35	0x3e96b3aa	0.29433948
36	0xbe8b644a	-0.27224952
37	0xbea72d05	-0.32651535
38	0xbc96962f	-0.01838216
39	0xbd8b70d4	-0.0680863
40	0xbe25753a	-0.16158
41	0x3ec928a7	0.39288828
42	0xbe840297	-0.25783226
43	0xbe06c3b0	-0.13160586
44	0x3e8b2c26	0.2718212
45	0xbe8525ae	-0.2600531
46	0x3e89e187	0.26929876
47	0xbeb1e907	-0.34748098
48	0x3e0deafe	0.13859174
49	0x3e890932	0.26764828
50	0xbe8ce93b	-0.2752169
51	0x3ebaa54a	0.3645423
52	0xbe2c55da	-0.16829625
53	0x3e9724bc	0.29520214
54	0xbbbd4b40	-0.0057767928
55	0xbe2f1446	-0.17097577
56	0x3e0e19a2	0.13876966
57	0xbf0521d8	-0.52004766
58	0xbe1a01a8	-0.15039694
59	0x3ed6a099	0.419194
60	0x3e5f6546	0.21815977
61	0xbda8b5c5	-0.08237795
62	0x3e406f57	0.18792473
63	0xbeb2fc67	-0.34958193
64	0xbeae739f	-0.34072587
65	0x3da85525	0.08219365
66	0xbe8152d7	-0.25258514
67	0x3e51f9e7	0.20505486
68	0xbe6bca10	-0.230263
69	0x3ed28587	0.41117498
70	0xbec1385e	-0.37738317
71	0xbea5be9f	-0.32371995
72	0xbcd3f102	-0.025871757
73	0x3d999b94	0.07500377
74	0xbe9db604	-0.3080293
75	0x3dd78186	0.105227515
76	0xbe798ed4	-0.24370891
77	0x3dcf6644	0.101269275
78	0x3e9c02b6	0.30470818
79	0x3d0c8ebb	0.034315806
80	0x3e0eaf2e	0.13934013
81	0x3c4b5ecd	0.012412739
82	0xbd8edf06	-0.06976132
83	0xbe94dd3e	-0.29075044
84	0x3e5cf4c5	0.21577747
85	0xbe56bb53	-0.20969896
86	0x3e02b91d	0.12765928
87	0x3ee1dd76	0.44114274
88	0xbed4c7c3	-0.41558656
89	0xbe760d09	-0.2402841
90	0xbe60a8ba	-0.21939364
91	0x3e29cc42	0.16581824
92	0x3e80a46f	0.25125453
93	0x3e454da0	0.19267893
94	0x3e329121	0.17438175
95	0x3e9e282c	0.30890024
96	0x3e40341c	0.18769878
97	0xbd220434	-0.03955479
98	0x3e0f40a4	0.13989502
99	0x3b22c0c3	0.0024834133
100	0xbed7efa7	-0.42175028
101	0xbee08a7d	-0.43855658
102	0x3e66672d	0.22500296
103	0x3ec7063f	0.38871953
104	0xbeab0edb	-0.3340977
105	0xbe2f19e8	-0.17099726
106	0x3ec315cf	0.38102576
107	0x3d4b4da1	0.04963458
108	0x3e47530b	0.19465272
109	0x3eac1e57	0.33616897
110	0x3dc0fafe	0.09422873
111	0xbc93a8b5	-0.018024782
112	0x3ebde40f	0.37088057
113	0xbf03c541	-0.5147286
114	0xbe97bee9	-0.2963784
115	0x3dd9473b	0.10609289
116	0xbcea0a41	-0.028569343
117	0xbeac80fd	-0.3369216
118	0xbe1afdaa	-0.15135828
119	0xbde49b19	-0.11162395
120	0x3eaf3a16	0.34224004
121	0x3deb0692	0.114758626
122	0x3e29c5c8	0.16579354
123	0x3e8cff21	0.27538398
124	0xbdd31df7	-0.1030845
125	0xbea83b5e	-0.32857794
126	0xbe34fa83	-0.17673688
127	0xbea4ab81	-0.32162097
128	0xbebabde0	-0.36472988
129	0xbe83b22d	-0.25721875
130	0xbcd0d22d	-0.025490845
131	0x3ea630b7	0.3245904
132	0x3e61f3bd	0.22065635
133	0xbe68b86f	-0.22726606
134	0x3eb22d01	0.3479996
135	0x3cc03e94	0.02346734
136	0x3f07acd7	0.5299811
137	0xbe21000d	-0.15722676
138	0x3e921394	0.28530562
139	0xbe3dc545	-0.18532284
140	0xbcf90e0a	-0.030402202
141	0x3e2521f2	0.1612623
142	0x3ea97ffd	0.3310546
143	0xbd179a73	-0.03701253
144	0xbd8f455d	-0.06995652
145	0x3c3a1b49	0.011359044
146	0x3df36c60	0.11885905
147	0x3e83f96f	0.2577624
148	0x3eb3ada9	0.3509343
149	0x3e9fd2d9	0.31215551
150	0xbd22b367	-0.039721873
151	0xbe88e388	-0.26736093
152	0xbe8e20c8	-0.27759385
153	0xbe53e0e7	-0.20691262
154	0xbd5aaa51	-0.053385083
155	0xbee35e4a	-0.44407874
156	0x3dd0c746	0.101942584
157	0x3e7ea999	0.24869384
158	0x3e903fe3	0.28173742
159	0xbedca97e	-0.43098062
160	0x3e85e45e	0.26150793
161	0xbe88454c	-0.2661537
162	0xbe5da4a4	-0.21644837
163	0xbe9c6aa0	-0.30550098
164	0xbe77f225	-0.24213465
165	0xbf0456b5	-0.51694804
166	0xbd84a794	-0.064772755
167	0xbdeaa05d	-0.11456368
168	0xbe65e593	-0.22450857
169	0x3e4b4138	0.19849098
170	0xbea7c672	-0.3276859
171	0xbd02d0ef	-0.031937536
172	0xbdda5406	-0.106605574
173	0xbe59f95f	-0.21286534
174	0xbd82727f	-0.06369495
175	0xbe972e8f	-0.2952771
176	0x3ea99388	0.3312037
177	0x3dca446a	0.0987633
178	0xbefcf52c	-0.494058
179	0x3e356497	0.17714153
180	0x3e332435	0.1749428
181	0xbea30906	-0.31842822
182	0xbe17678b	-0.14785592
183	0xbd133c03	-0.035945904
184	0xbdf722b9	-0.1206717
185	0x3dd9b4a9	0.10630161
186	0xbea30e4d	-0.31846848
187	0x3e6f6bd6	0.2338098
188	0xbe6b2ab5	-0.2296551
189	0xbbc544ce	-0.006020165
190	0x3f08e7f7	0.5347895
191	0xbeb2be84	-0.34910977
192	0x3e28af10	0.16473031
193	0xbe8060ae	-0.2507376
194	0xbe4f78eb	-0.2026097
195	0xbe8e9eac	-0.27855432
196	0x3dce39a3	0.10069587
197	0x3d0687f1	0.032844488
198	0x3e0ae70a	0.13564697
199	0xbe9df7f0	-0.30853224
200	0xbe2be506	-0.16786584
201	0x3e45468a	0.1926519
202	0xbeb7fe25	-0.35936084
203	0xbeac768f	-0.33684203
204	0xbed00d90	-0.40635347
205	0x3ec93e52	0.3930536
206	0x3ec4c528	0.38431668
207	0xbe6ac6c7	-0.2292739
208	0x3cb0926f	0.0215542
209	0xbe7897ec	-0.24276704
210	0x3d64ff7a	0.055907704
211	0x3eb8d8bc	0.36102855
212	0xbaf1595a	-0.001841347
213	0x3e113ac1	0.14182569
214	0xbea71601	-0.32633975
215	0xbef8c268	-0.4858582
216	0xbe00ae28	-0.12566435
217	0xbdd9a93f	-0.10627984
218	0xbebf8755	-0.37407938
219	0x3e37e5cf	0.17958759
220	0xbe3fd857	-0.18734871
221	0xbc2bb10f	-0.010479226
222	0x3e6fe16c	0.23425835
223	0x3d5953ae	0.05305832
224	0xbea9c3ff	-0.33157346
225	0x3e6a3e8b	0.22875421
226	0x3e9ad26c	0.30238664
227	0x3e81c323	0.2534419
228	0xbe6c7d3b	-0.23094647
229	0x3d740bc5	0.059581537
230	0xbea570a8	-0.32312512
231	0x3d2d6d29	0.04234043
232	0x3e63495d	0.22195955
233	0x3e595c81	0.21226694
234	0x3d1ad9df	0.037805434
235	0x3e7e6655	0.24843724
236	0x3e6d4828	0.23172057
237	0x3e961541	0.2931309
238	0x3e900d62	0.2813521
239	0xbd10ca43	-0.03534914
240	0xbdc3cf3e	-0.09561013
241	0x3e580e4d	0.21099205
242	0x3dc59c4c	0.09648952
243	0x3e318c2b	0.17338626
244	0xbe706601	-0.23476411
245	0xbecec7f0	-0.40386915
246	0x3d11529d	0.035479177
247	0x3d0b6fdf	0.034042235
248	0xbcde0b7d	-0.027105087
249	0x3ea6349b	0.3246201
250	0xbe28596d	-0.16440363
251	0x3e3f6c43	0.18693642
252	0xbcd0223f	-0.025406955
253	0xbe140c24	-0.14457756
254	0xbe38efb3	-0.18060188
255	0x3e1c2660	0.15249014

0.bias f4 [128]
0	0x3e99a831	0.30011132
1	0xbd5ee67e	-0.054419033
2	0xbeb6c257	-0.35695145
3	0xbd2d0044	-0.04223658
4	0xbeaf2e5a	-0.3421505
5	0x3e9f3fb7	0.31103298
6	0x3e1d692b	0.1537215
7	0x3d81e2b9	0.06342072
8	0x3e8752ad	0.26430264
9	0x3d33900a	0.04383854
10	0x3d4eb631	0.05046672
11	0x3ea0f088	0.3143351
12	0x3e69de64	0.22838742
13	0x3c010785	0.007875328
14	0x3d035dc7	0.032071855
15	0x3e8cc2f2	0.2749248
16	0xbe253542	-0.16133597
17	0x3e3db4e1	0.18526031
18	0xbe494a32	-0.1965721
19	0x3df7bca2	0.12096526
20	0x3e938dc0	0.28819084
21	0x3ecf0d14	0.40439665
22	0xbe7f33c1	-0.24922086
23	0xbd233104	-0.039841667
24	0x3ed9d9ee	0.4254908
25	0xbea7af94	-0.32751143
26	0x3e3843ec	0.1799466
27	0xbebf02e7	-0.37306902
28	0x3eb4f36b	0.35341963
29	0xbe81c32d	-0.2534422
30	0xbddf74c6	-0.10910945
31	0x3c751648	0.014958926
32	0x3e8d5abb	0.27608284
33	0xbe9a6d72	-0.30161625
34	0xbe653a34	-0.22385484
35	0xbe777b14	-0.24168044
36	0x3e3bc3a2	0.18336347
37	0xbe1a09f9	-0.15042867
38	0xbea07e0a	-0.3134616
39	0x3d8eb111	0.069673665
40	0x3eaba38d	0.33523217
41	0x3e545546	0.20735654
42	0xbe3cc8d7	-0.1843599
43	0x3e8bb71e	0.27288145
44	0xbebba290	-0.36647463
45	0x3e0708ba	0.13186923
46	0x3d6916ab	0.056906383
47	0x3e1eac2c	0.15495366
48	0xbea80ea5	-0.32823673
49	0x3dd255bd	0.102702595
50	0xbdac2101	-0.084047325
51	0x3e7cfb78	0.24705303
52	0xbd3f135d	-0.046649326
53	0x3de87a53	0.113514565
54	0x3edb2a0c	0.42805517
55	0xbec005b9	-0.37504366
56	0x3e09c337	0.13453375
57	0x3d50b7e0	0.050956607
58	0x3e498367	0.19679032
59	0xbdd6d10a	-0.1048909
60	0x3e1e3efe	0.15453717
61	0xbe5cd139	-0.21564187
62	0x3e49be2c	0.19701451
63	0xbe57ec7f	-0.2108631
64	0xbe3096a4	-0.17244965
65	0x3eb0092f	0.34382007
66	0xbd24473a	-0.04010699
67	0x3ed6a1f3	0.41920432
68	0x3d86fc23	0.0659106
69	0x3e1e4e9f	0.15459679
70	0x3e528796	0.20559534
71	0x39e36a0a	0.0004337582
72	0x3efffc51	0.4999719
73	0xbebb6683	-0.36601648
74	0xbe1bd74f	-0.15218852
75	0x3ee66e1f	0.4500589
76	0x3ea8f1fb	0.32997116
77	0x3d9918fb	0.07475468
78	0xbe90ac0d	-0.28256264
79	0x3e20ed0e	0.15715429
80	0xbe2cf645	-0.1689082
81	0xbe97070d	-0.29497567
82	0x3ec55a8e	0.3854565
83	0xbe8e3489	-0.27774456
84	0xbcdd839f	-0.0270403
85	0xbcc62684	-0.024188288
86	0xbec7a258	-0.38991046
87	0xbdab1ea2	-0.08355452
88	0x3d593507	0.053029086
89	0x3e8ac94a	0.27106696
90	0xbd50ac11	-0.050945345
91	0xbe8f4042	-0.27978712
92	0xbc9e2726	-0.019305777
93	0x3dbf61fd	0.09344862
94	0xbec02040	-0.37524605
95	0xbed03736	-0.40667123
96	0xbddf7c4d	-0.1091238
97	0xbead91aa	-0.33900195
98	0x3e071f53	0.13195543
99	0x3e92a986	0.2864496
100	0x3d628ac8	0.055308133
101	0x3d6e5f84	0.05819656
102	0xbe9a7e27	-0.30174372
103	0xbe0d1267	-0.13776551
104	0x3da06277	0.07831281
105	0x3eaeef43	0.34166917
106	0x3ebb91ca	0.36634666
107	0x3ec5b4f8	0.3861463
108	0xbec68093	-0.3876997
109	0xbe1dc6ef	-0.15407918
110	0xbe619a10	-0.22031426
111	0x3ea5e7ce	0.32403415
112	0x3e923b80	0.2856102
113	0x3d28080f	0.04102331
114	0xbd6bf9c6	-0.05761125
115	0x3e917ee8	0.28417134
116	0x3e24e1ee	0.1610181
117	0xbe4ad7e2	-0.19808915
118	0xbe4e635d	-0.20155092
119	0x3d545364	0.05183734
120	0xbe8ec003	-0.27880868
121	0x3ea510b7	0.32239315
122	0xbe46a1a0	-0.19397593
123	0xbe91b2e1	-0.28456786
124	0xbd3c5004	-0.045974746
125	0xbc4187c7	-0.011812157
126	0x3e5ad176	0.21368966
127	0xbc3a745e	-0.011380283

2.weight f4 [81, 128]
0	0xbcd31431	-0.025766464
1	0xbcc3fb75	-0.023923615
2	0x3d828ef4	0.063749224
3	0x3bf3abb9	0.0074362424
4	0x3b8bd5a2	0.0042674104
5	0x3d5d3df8	0.054014176
6	0x3d82f987	0.0639525
7	0xbc573fba	-0.013137752
8	0x3c3e9045	0.011631076
9	0x3d2718cd	0.040795136
10	0x3c89814d	0.016785288
11	0x3cfcc264	0.030854411
12	0x3c607edb	0.01370212
13	0xbd662e3c	-0.056196436
14	0x3b0adfbd	0.0021190487
15	0xbd875356	-0.06607692
16	0x3d4de144	0.05026366
17	0x3d80faf7	0.06297868
18	0xbdab1bcd	-0.08354912
19	0x3c15540c	0.009114277
20	0x3db03b23	0.086050294
21	0xbdacb48d	-0.08432875
22	0x3b0ebfcf	0.0021781807
23	0xbd899d59	-0.06719465
24	0x3b930d7b	0.004487691
25	0xbb237ff3	-0.002494809
26	0x3d9edfaf	0.07757508
27	0x3ce9a0e1	0.028519096
28	0x3d1fc0b7	0.039002147
29	0x3d83e788	0.064406455
30	0x3cc5ffd8	0.024169847
31	0xbceedc19	-0.029157685
32	0xbd181a56	-0.03713449
33	0xbd8d28dd	-0.0689256
34	0xbda42bcf	-0.08016168
35	0x3d84a188	0.06476122
36	0xbc8b6315	-0.01701502
37	0xbda68569	-0.08130915
38	0xbc1f256a	-0.00971351
39	0xbd05fde7	-0.032712843
40	0x3d7c1003	0.061538707
41	0x3d7de309	0.061984096
42	0x3d373875	0.044731576
43	0x3c549aac	0.01297633
44	0x3c54566f	0.0129600605
45	0x3c9ea371	0.019365044
46	0xbd0aa3ff	-0.033847805
47	0xbd8d8572	-0.06910218
48	0x3d9a0ae3	0.07521608
49	0xbc6fc8e9	-0.014635303
50	0x3d766847	0.06015804
51	0x3d03b058	0.032150596
52	0x3c813592	0.015772615
53	0x3d04f7c1	0.03246284
54	0x3d9bbdc6	0.07604556
55	0x3d9b08cb	0.075700365
56	0xbd5ea474	-0.054356053
57	0xbd9f1203	-0.07767107
58	0xbcebe9bf	-0.028797982
59	0x3d0452ec	0.032305643
60	0xbb63f449	-0.0034783056
61	0xbda3284b	-0.0796667
62	0x3db1b135	0.08676378
63	0xbd42a88e	-0.047524028
64	0x3d191c36	0.03738042
65	0xbd7ae07a	-0.061249234
66	0xbc61f59f	-0.013791471
67	0x3cd5ac41	0.026083114
68	0xbd4ac76d	-0.049506593
69	0x3d087cc6	0.03332212
70	0x3d65b63f	0.056082007
71	0xbc73c1bb	-0.014877732
72	0xbd32b92e	-0.043633632
73	0xbd66dfdd	-0.056365836
74	0xbcfc9fa2	-0.030837838
75	0xbd9ab82f	-0.075546615
76	0xbcb9283d	-0.022602195
77	0x3d615dbf	0.055021044
78	0x3d4212ae	0.047381096
79	0xbd0ed064	-0.034866706
80	0xbd2ebb06	-0.04265883
81	0x3d5bb154	0.05363591
82	0xbc7107e8	-0.014711358
83	0xbda7a4aa	-0.08185704
84	0xbd8b0498	-0.067879856
85	0xbc1bf959	-0.009519898
86	0x3d9488c8	0.072526515
87	0xbd6c0728	-0.057624012
88	0x3d88a1a2	0.06671454
89	0xbda09a79	-0.07841963
90	0xbc544c5c	-0.012957659
91	0x3d1ad5b8	0.037801474
92	0x3d636296	0.05551394
93	0x3d338b17	0.04383382
94	0x3cf4fe9a	0.02990656
95	0x3d97469c	0.073865145
96	0x3ce53084	0.027977236
97	0x3caa6833	0.02080164
98	0x3cd13f07	0.02554275
99	0x3d877af4	0.06615248
100	0x3d8000a9	0.06250126
101	0xbc66b3c4	-0.014080945
102	0x3d36fd43	0.044675123
103	0x3cf5c0ba	0.029999126
104	0xbdae8030	-0.085205436
105	0x3d493d64	0.049130812
106	0x3db2595d	0.08708451
107	0xbdaf8bca	-0.085715845
108	0x3ccd25c5	0.025042424
109	0xbd19bd7f	-0.037534233
110	0xbd2631cc	-0.040574834
111	0x3da92c84	0.08260444
112	0xb9705c6e	-0.00022922616
113	0x3db00f7d	0.08596704
114	0xbdb421b2	-0.08795489
115	0xbc80d31b	-0.015725663
116	0x3d8631dc	0.06552479
117	0xbd2a08b8	-0.04151222
118	0x3db487f5	0.08814994
119	0xbd297673	-0.041372728
120	0xbd7a44f5	-0.06110092
121	0xbc8d1af2	-0.017224763
122	0x3b80f1b0	0.0039350614
123	0xbd5622a1	-0.05227912
124	0xbd99c72e	-0.07508694
125	0xbdb19555	-0.08671061
126	0xbc852845	-0.016254554
127	0xbd546aad	-0.051859546
128	0x3d612c18	0.05497369
129	0xbd104cc3	-0.035229456
130	0xbd98d008	-0.07461554
131	0x3d0a3005	0.0337372
132	0x3ce3793f	0.027767776
133	0x3c8b956b	0.017039021
134	0xbc1c58b8	-0.009542637
135	0x3c1903f2	0.00933932
136	0x3d4b8e1d	0.049696077
137	0xbdafbdef	-0.08581149
138	0x3daa3a0e	0.08311854
139	0x3d9383ca	0.07202871
140	0x3bb519cf	0.0055267583
141	0x3d9ce7b5	0.07661382
142	0xbd5e4873	-0.05426831
143	0xbbc753d4	-0.006082991
144	0x3d4c83dd	0.049930442
145	0xbd4b817f	-0.049684044
146	0xbd5253a1	-0.051349286
147	0x3da1a1e8	0.07892209
148	0x3d488136	0.04895135
149	0xbd02e942	-0.031960733
150	0xbd7b62d1	-0.061373536
151	0x3b65bce6	0.003505522
152	0x3d962265	0.07330779
153	0xbd382888	-0.04496053
154	0xbd091040	-0.033462763
155	0x3d94d8dd	0.07267926
156	0x3d2b8acd	0.041880418
157	0x3c63ee46	0.013911789
158	0x3cf90909	0.030399816
159	0x3bc3618d	0.0059625567
160	0x3d8c7fb4	0.06860295
161	0xbda390b1	-0.07986582
162	0x3aefaba8	0.001828541
163	0x3d8d4a56	0.06898944
164	0xbd38e19e	-0.04513704
165	0xbd33228c	-0.04373412
166	0x3b47052a	0.0030368068
167	0xb76fb58e	-1.4287782e-05
168	0x3da93cd0	0.08263552
169	0xbda5cada	-0.080953315
170	0x3c858d30	0.016302675
171	0x3dad110e	0.084505185
172	0x3dabe03e	0.0839238
173	0xbc2b9037	-0.010471395
174	0x3b4c14c3	0.0031140305
175	0xbd5ad7e4	-0.053428546
176	0x3d94b118	0.072603405
177	0x3d7d0054	0.06176789
178	0xbcaa34ce	-0.020777132
179	0x3d5b7131	0.053574745
180	0x3c84d7a3	0.016216105
181	0xbbb77854	-0.005599061
182	0xbd000a14	-0.03125961
183	0x3cb1b2a7	0.021691633
184	0xbd1c8f5d	-0.03822266
185	0xbd20c959	-0.03925452
186	0xbd7554f0	-0.059895456
187	0x3a29ad92	0.00064727024
188	0x3b7bd5c1	0.0038426968
189	0xbc2b2dc0	-0.010447919
190	0x3c31d241	0.010853351
191	0xbd674563	-0.056462657
192	0xbd008750	-0.031379044
193	0x3dae2175	0.08502475
194	0x3c57e487	0.013177044
195	0xbbbba4ae	-0.0057264185
196	0x3db1e800	0.086868286
197	0x3d8e8dcb	0.069606386
198	0x3c4473a5	0.011990462
199	0xbd0c1ef7	-0.034209218
200	0xbcff1fc9	-0.031143086
201	0xbd897e8f	-0.06713592
202	0x3d06bdac	0.03289573
203	0xbd99110e	-0.07473956
204	0x3d01a266	0.031649016
205	0xbda10bce	-0.0786358
206	0xbd9bd324	-0.07608631
207	0xbcf2e59f	-0.029650507
208	0xbda98938	-0.082781255
209	0xbd9b3958	-0.07579297
210	0x3d17d61a	0.037069418
211	0x3d2b662c	0.041845486
212	0x3d5bd51d	0.053670038
213	0x3cc701df	0.024292884
214	0x3d8c4bc8	0.068503916
215	0x3d9d8909	0.07692153
216	0xbcb3be99	-0.02194147
217	0xbbf35e1e	-0.007426991
218	0xbd6dd601	-0.05806542
219	0xbda9342c	-0.08261904
220	0x3da86bc8	0.08223683
221	0x3ce4f6c7	0.027949704
222	0x3c808915	0.015690366
223	0x3d85678e	0.06513892
224	0xbc3644c8	-0.011124797
225	0xbd6fdcf1	-0.058560316
226	0xbba7d13e	-0.005121379
227	0xbd996237	-0.07489436
228	0xbd90d6b5	-0.07072202
229	0xbda9d7e8	-0.08293134
230	0xbd8665e7	-0.06562405
231	0xbc5ab391	-0.013348476
232	0x3c9f2bc2	0.019430045
233	0x3c0a5218	0.008442424
234	0x3d104f0c	0.035231635
235	0xbd38c802	-0.045112617
236	0x3d886f46	0.06661849
237	0x3d230089	0.039795432
238	0x3be2521e	0.006906762
239	0x3c651868	0.01398287
240	0xbbb5424a	-0.005531584
241	0xbd1a1503	-0.037617695
242	0x3bec8988	0.0072185434
243	0xbc5e2444	-0.013558451
244	0x3c465912	0.012106197
245	0xbd8a2db1	-0.06746996
246	0xbcd864de	-0.026415285
247	0x3d8125af	0.06306016
248	0x3cdcbd5e	0.026945766
249	0xbd12dbcc	-0.035854146
250	0x3c3f71a9	0.011684814
251	0x3d77bed9	0.06048474
252	0xbc4eab25	-0.012614046
253	0x3b940da1	0.0045182263
254	0xbc8744c4	-0.016512282
255	0xbdb1bd88	-0.08678728

0.weight f4 [128, 3]
0	0x3e0924e1	0.13392974
1	0x3c7a91cd	0.015293551
2	0xbe8829f1	-0.265945
3	0xbea85e37	-0.3288438
4	0xbdd524e1	-0.10407425
5	0xbec3753e	-0.38175386
6	0x3ed32546	0.41239375
7	0xbe9f8137	-0.3115327
8	0xbe548069	-0.2075211
9	0xbd88a9fc	-0.06673047
10	0xbea8896f	-0.32917354
11	0x3e798ae7	0.24369393
12	0xbe3b3de3	-0.18285327
13	0x3caa1a1a	0.0207644
14	0x3e11e29f	0.14246605
15	0x3d0be6c2	0.034155615
16	0xbe5dbe6e	-0.21654674
17	0x3ddffd1e	0.1093695
18	0x3ec70db6	0.38877648
19	0x3f01706f	0.50562185
20	0x3e092134	0.13391572
21	0x3e02fa2f	0.1279075
22	0xbeb521c9	-0.3537734
23	0x3d68eec8	0.056868345
24	0x3ed2a688	0.41142678
25	0xbf034231	-0.51272875
26	0xbe44de73	-0.19225483
27	0xbea39a5c	-0.31953704
28	0xbcf5e08a	-0.030014295
29	0x3ef06352	0.46950775
30	0xbea32794	-0.31866133
31	0xbd9032b8	-0.07040924
32	0xbdaec263	-0.0853317
33	0x3e9df46b	0.3085054
34	0x3eccf43e	0.40030092
35	0xbe521eff	-0.20519637
36	0x3dcea120	0.10089326
37	0xbe9f0fe8	-0.31066823
38	0xbe177908	-0.14792264
39	0xbe2fc5d6	-0.17165312
40	0x3e4d731b	0.2006344
41	0x3eef948e	0.46793026
42	0xbdbf6147	-0.09344726
43	0x3ee71960	0.45136547
44	0x3e081d80	0.13292503
45	0xbd00c55b	-0.031438213
46	0xbe0b1757	-0.13583122
47	0x3eabbe92	0.3354383
48	0x3d9d5f4a	0.076841906
49	0x3e72ae7a	0.2369937
50	0xbee1409d	-0.4399461
51	0xbea73251	-0.32655576
52	0xbe94a25c	-0.2903012
53	0x3ecbffb5	0.39843526
54	0x3eb04606	0.34428424
55	0xbe6b45a9	-0.22975792
56	0x3d9a35da	0.075298026
57	0xbe6479b1	-0.22312047
58	0x3e561f00	0.20910263
59	0x3d0f59fe	0.034997933
60	0xbd6ad9a4	-0.057336465
61	0x3e71b0ef	0.23602651
62	0xbe81af2d	-0.2532896
63	0xbdb57af2	-0.088613406
64	0x3d872854	0.06599489
65	0x3d0b857e	0.034062855
66	0x3ee1ac82	0.44076926
67	0x3dba1552	0.09086098
68	0x3eece1ef	0.46266124
69	0x3e72b22b	0.23700778
70	0x3f0be2d5	0.54642993
71	0xbd299660	-0.041403174
72	0xbe79ed4a	-0.24406925
73	0xbd334c10	-0.04377371
74	0xbe60d065	-0.21954496
75	0x3eda790a	0.4267047
76	0xbeb959fc	-0.36201465
77	0xbe47db50	-0.19517255
78	0xbc3f04b2	-0.011658834
79	0x3e9d73b7	0.30752346
80	0x3e0c6d24	0.13713509
81	0xbd37bf60	-0.044860244
82	0x3e45939d	0.19294591
83	0x3e227ec6	0.15868673
84	0xbe94a01d	-0.29028407
85	0xbe270e3f	-0.16314028
86	0x3d7f3ebc	0.062315688
87	0x3e7891a4	0.24274307
88	0x3ed0c4b6	0.4077508
89	0xbe14ddcd	-0.14537735
90	0xbea77971	-0.3270984
91	0xbe8fd242	-0.280901
92	0x3d308fdc	0.043105945
93	0xbebb0f57	-0.3653514
94	0xbdcac9c3	-0.09901764
95	0xbc8d66a6	-0.01726086
96	0xbc3b9f90	-0.011451617
97	0x3c3ba6b7	0.011453322
98	0x3d489f6c	0.04898016
99	0xbcb7e487	-0.022447838
100	0xbcb0816b	-0.021546086
101	0xbed74131	-0.42041925
102	0xbecdccea	-0.401954
103	0xbe9e58e7	-0.30927202
104	0x3ed52ba0	0.41634846
105	0xbf136a07	-0.5758366
106	0x3d0227b9	0.031776164
107	0xbeb8a658	-0.3606441
108	0x3eec75d1	0.46183637
109	0xbd018c34	-0.03162785
110	0xbf00382f	-0.5008573
111	0xbee30b78	-0.44344687
112	0x3c4ded69	0.01256881
113	0xbee291c5	-0.44251838
114	0xbe8d4731	-0.27593377
115	0xbd34f61d	-0.044180024
116	0xbe9bc95b	-0.3042706
117	0x3ecb9705	0.39763656
118	0xbecceddc	-0.40025222
119	0x3e947a84	0.28999722
120	0xbe773cdc	-0.2414431
121	0xbe55fbd8	-0.20896852
122	0xbda73263	-0.081639074
123	0x3ea7e046	0.32788295
124	0xbe2d43e9	-0.16920437
125	0x3ecf2bb2	0.40463024
126	0xbe97cce9	-0.29648522
127	0x3ed555d0	0.41667032
128	0xbec8e0b7	-0.39233944
129	0x3eab36d1	0.3344026
130	0x3e5627a3	0.20913558
131	0xbc41ee11	-0.011836545
132	0xbe43c7b2	-0.19119146
133	0xbe04fec9	-0.12987818
134	0xbec0d572	-0.37662846
135	0xbe8bb1f2	-0.272842
136	0xbeae75fa	-0.34074384
137	0xbe8fd6fd	-0.2809371
138	0x3e45f0bd	0.19330116
139	0x3e849473	0.25894508
140	0xbf130f1b	-0.57444924
141	0x3ef63340	0.48085976
142	0x3d3a4773	0.045478296
143	0xbedd6d79	-0.43247584
144	0x3e9a3838	0.30121017
145	0x3ed22273	0.41041908
146	0x3e3fb1f2	0.18720224
147	0xbd942d31	-0.07235182
148	0xbe9ce78b	-0.30645403
149	0x3e6c2949	0.23062624
150	0xbd2c6c0f	-0.04209524
151	0x3e21679b	0.15762179
152	0x3e0925a5	0.13393266
153	0xbf018243	-0.5058939
154	0xbe4115e2	-0.18856004
155	0x3d234d48	0.039868623
156	0x3d779126	0.06044116
157	0xbeff1ed8	-0.4982822
158	0x3ec8710e	0.39148754
159	0xbe5382e7	-0.20655404
160	0xbeebe7e6	-0.46075362
161	0x3ee6de12	0.450913
162	0x3e6926e1	0.22768737
163	0x3d27f9df	0.04100978
164	0x3ed4c47e	0.41556162
165	0x3d863029	0.065521546
166	0x3ed3ec08	0.41391015
167	0xbd5de05a	-0.054169036
168	0xbd5156f6	-0.051108323
169	0xbee91721	-0.45525458
170	0x3e4a6cfd	0.19768138
171	0x3e9c2d0f	0.30503127
172	0xbec60d72	-0.38682133
173	0xbed4d99f	-0.41572282
174	0xbdae545e	-0.085121855
175	0x3e8e71af	0.2782111
176	0xbefccc10	-0.49374437
177	0x3e03c027	0.12866269
178	0xbf13dc41	-0.57757956
179	0x3ea74c78	0.3267553
180	0x3d9a586c	0.075363964
181	0xbe229fda	-0.15881291
182	0xbe28bdaa	-0.16478601
183	0xbd6063b5	-0.054782588
184	0xbec38455	-0.381869
185	0x3ea02977	0.31281635
186	0xbe9e3468	-0.30899358
187	0x3dfe490d	0.12416277
188	0x3daf321f	0.08554482
189	0xbe161495	-0.14656289
190	0x3e6a3951	0.22873427
191	0xbe35f9b9	-0.17771043
192	0x3efef0bb	0.49793038
193	0xbd675c93	-0.05648477
194	0xbeef2f66	-0.4671585
195	0x3e2d9fb3	0.16955452
196	0x3ed53ce7	0.41648027
197	0xbdf1b08f	-0.11801254
198	0x3eac544e	0.3365807
199	0x3e2535a6	0.16133747
200	0xbd6dcfeb	-0.058059614
201	0xbea88937	-0.32917187
202	0xbe78aeda	-0.2428545
203	0xbe42996e	-0.19003841
204	0xbed7e5a2	-0.42167383
205	0x3ea8ce2e	0.32969803
206	0x3e01a94c	0.12662238
207	0x3e54f09d	0.20794912
208	0xbea55ee6	-0.32298964
209	0xbecdc9a0	-0.4019289
210	0xbe36c194	-0.17847282
211	0xbe8074fa	-0.25089246
212	0xbee4fd49	-0.4472449
213	0xbce4c1fc	-0.02792453
214	0x3d429426	0.047504567
215	0x3b818e12	0.0039537037
216	0xbe8d73f3	-0.27627525
217	0xbf006c97	-0.50165695
218	0xbe8debf8	-0.27719092
219	0xbe14f338	-0.14545906
220	0x3ec3c792	0.38238198
221	0x3e268de9	0.16265072
222	0xbe1d31e3	-0.15351062
223	0xbd03a3e8	-0.032138735
224	0x3e54b474	0.20771962
225	0xbee8af59	-0.4544628
226	0x3dff5b08	0.12468535
227	0xbef9f88c	-0.4882244
228	0xbda97902	-0.082750335
229	0xbee0ac20	-0.4388132
230	0xbe23415f	-0.15942906
231	0x3eb47746	0.35247248
232	0xbddba3d6	-0.107246086
233	0x3ef464ea	0.4773324
234	0x3eea0a14	0.45710814
235	0x3de089b5	0.109637655
236	0xbefd8ca4	-0.49521363
237	0x3e8036bd	0.25041762
238	0x3ed6b01e	0.41931242
239	0x3e8d3035	0.27575842
240	0xbe979144	-0.29603016
241	0x3eea84b7	0.45804378
242	0xbef3f228	-0.47645688
243	0xbee4cd70	-0.44687986
244	0xbe562b22	-0.20914891
245	0x3cbeec6e	0.023306098
246	0x3e9d2b7a	0.30697232
247	0x3dfcee6d	0.123501636
248	0xbe81b6c3	-0.2533475
249	0x3d3591ed	0.04432862
250	0x3ea5c976	0.32380265
251	0x3e053136	0.13007054
252	0x3ecad661	0.39616683
253	0xbdfa7141	-0.12228633
254	0x3ef17e50	0.4716668
255	0x3e367b52	0.1782048

0.bias f4 [128]
0	0x3f021b8d	0.5082329
1	0xbe56ee9d	-0.20989461
2	0x3d50049b	0.050785642
3	0xbdc5b7ba	-0.09654184
4	0xbde8c712	-0.11366095
5	0x3c2ca158	0.010536514
6	0x3e998ba2	0.29989344
7	0xbe6010de	-0.21881434
8	0x3d0375e0	0.032094836
9	0xbe832356	-0.25612897
10	0xbe872a5a	-0.263995
11	0x3ed14192	0.4087034
12	0xbef3a5ca	-0.47587425
13	0xbeabbdff	-0.33543393
14	0x3db6db84	0.08928588
15	0xbe8162ca	-0.25270683
16	0xbe2072d0	-0.15668797
17	0x3e900d70	0.28135252
18	0xbee67819	-0.45013502
19	0xbe5ab72d	-0.21358939
20	0xbf19003b	-0.59765977
21	0x3f024980	0.508934
22	0x3c20692b	0.009790699
23	0x3e61c2e8	0.22047007
24	0xbde168be	-0.11006306
25	0xbe66262f	-0.22475503
26	0xbf1357ed	-0.5755604
27	0x3f215101	0.6301423
28	0x3e2f0ad3	0.17093973
29	0x3d47df57	0.048796978
30	0x3edf8686	0.4365732
31	0x3ece894a	0.40339118
32	0x3f008f64	0.50218797
33	0xbe3791f6	-0.17926773
34	0xbddf56eb	-0.1090525
35	0xbe9bb791	-0.30413488
36	0x3e677e09	0.22606672
37	0xbe10d519	-0.1414379
38	0x3c33dbde	0.010977713
39	0x3e4edb8f	0.20200942
40	0x3ef80a67	0.48445436
41	0xbe8443dd	-0.25833026
42	0x3e768216	0.24073061
43	0x3eebc9a3	0.46052274
44	0x3f157a60	0.58389854
45	0xbedac2a5	-0.42726627
46	0xbe583f8b	-0.2111799
47	0x3eee0080	0.46484756
48	0x3d7369f3	0.059427213
49	0x3ebcbfa0	0.36864948
50	0x3ef44e48	0.47715974
51	0x3ea1722d	0.31532422
52	0xbec2befe	-0.3803634
53	0x3ee9a8fa	0.4563673
54	0xbed27b16	-0.41109532
55	0x3e9b9948	0.30390382
56	0xbf0fadd3	-0.5612461
57	0xbd7f0fdb	-0.06227098
58	0xbd15b73b	-0.036551695
59	0x3c0affc5	0.008483832
60	0x3ecf4c84	0.40488064
61	0xbe7debc9	-0.24796976
62	0x3ef35b53	0.47530612
63	0xbeac7c2c	-0.33688486
64	0x3dcb5c37	0.09929698
65	0xbebf8aba	-0.37410527
66	0xbef18b6d	-0.47176686
67	0xbe29a8aa	-0.16568246
68	0x3e72ea75	0.23722251
69	0x3efae90f	0.49005935
70	0x3ef7f0ed	0.48426
71	0xbf00c0ce	-0.50294197
72	0x3cdf4c22	0.027257983
73	0xbe8b7b59	-0.27242544
74	0x3ee2b630	0.44279623
75	0xbe3a811d	-0.18213315
76	0xbe2a48f4	-0.16629392
77	0x3ef10df6	0.47080964
78	0x3f0d397c	0.5516584
79	0xbf0998bd	-0.53748685
80	0x3dceac7c	0.100914925
81	0x3e4bcfc0	0.19903469
82	0x3f07fd61	0.53121
83	0x3f1fe849	0.62463814
84	0x3e2272c7	0.15864097
85	0xbe2956b9	-0.16536988
86	0x3ec0afb9	0.37634066
87	0x3d7fa122	0.062409528
88	0x3ee544b1	0.4477897
89	0x3f0d4fa7	0.55199665
90	0x3e3a6f5b	0.18206541
91	0xbec1cb24	-0.37850296
92	0xbe69b934	-0.22824556
93	0xbe367ac2	-0.17820266
94	0xbe5a9b8e	-0.21348402
95	0x3eab8d37	0.33506176
96	0xbe8c2caa	-0.27377826
97	0xbefb09fb	-0.49031052
98	0xbe78b748	-0.24288666
99	0x3e66d6fa	0.22542945
100	0x3f004a47	0.5011334
101	0x3edabc6c	0.4272188
102	0x3d1ec0e2	0.038758166
103	0x3dc5ce8f	0.096585386
104	0xbe7ee00c	-0.24890155
105	0x3e7e8f16	0.2485927
106	0x3df95c2e	0.12175785
107	0x3e664eb4	0.2249096
108	0xbc1dfe8b	-0.009643207
109	0xbe79849f	-0.24366997
110	0x3e5dad35	0.21648104
111	0x3e10fd13	0.1415904
112	0xbecfa03c	-0.40551937
113	0x3eec1484	0.46109402
114	0x3d83fbb8	0.06444496
115	0x3f05a23c	0.52200675
116	0xbe0ded16	-0.13859972
117	0xbef7f294	-0.4842726
118	0xbd48a573	-0.04898591
119	0xbec7bb97	-0.39010307
120	0xbeb21766	-0.34783477
121	0xbebecc8b	-0.3726543
122	0xbead3e37	-0.3383653
123	0x3cb98c88	0.022650018
124	0xbdb7e206	-0.089786574
125	0x3f1a4cd3	0.60273474
126	0x3dd4bf7f	0.103880875
127	0x3f0b3413	0.54376334

2.weight f4 [36, 128]
0	0x3a879623	0.0010344427
1	0xbd7c502b	-0.06159989
2	0xbc1ff18f	-0.009762182
3	0xbdaf49fa	-0.08559032
4	0xbdcbb730	-0.099470496
5	0xbd9550d8	-0.0729081
6	0xbd39240a	-0.045200385
7	0x3b881d15	0.0041538575
8	0xbd8cfa20	-0.06883645
9	0xbbdf7f5e	-0.0068206033
10	0x3cfc060f	0.030764608
11	0xbcbd2624	-0.023089476
12	0xbcb355b0	-0.021891445
13	0xbd8fa0fd	-0.07013128
14	0xbd8f31eb	-0.06991943
15	0xbd19d9c3	-0.03756119
16	0xbd8277dd	-0.06370518
17	0xbd9a7dfa	-0.07543559
18	0x3d8915ea	0.06693633
19	0x3c7a7682	0.0152870435
20	0xbd429589	-0.04750589
21	0x3dc1c068	0.09460527
22	0xbd7112cd	-0.05885582
23	0x3cf15d82	0.029463533
24	0x3d1060cb	0.03524856
25	0xbcc04a3c	-0.023472898
26	0xbce6d6d2	-0.028178606
27	0x3dba2f4a	0.09091051
28	0xbd414c02	-0.047191627
29	0x3d94fb6c	0.072745174
30	0x3d30f614	0.04320343
31	0xbcab56ac	-0.020915352
32	0x3c0edddc	0.008719888
33	0x3d8ed9f1	0.06975163
34	0x3d409ab1	0.047022525
35	0xbc6e1cc9	-0.01453323
36	0xbc62b6f5	-0.013837566
37	0xbd76d78b	-0.06026415
38	0x3dc82e6f	0.097744815
39	0xbd24b774	-0.040214017
40	0x3daadf86	0.08343415
41	0x3cae700f	0.021293668
42	0x3cda1e1d	0.026625687
43	0x3d8e1450	0.06937468
44	0xbc9e9c63	-0.01936168
45	0xbcd869e9	-0.02641769
46	0x3d825c23	0.0636523
47	0xbd5055ea	-0.050863184
48	0xbd97a182	-0.07403852
49	0x3d826f1d	0.063688494
50	0x3de714e1	0.11283279
51	0x3c4827bf	0.012216507
52	0xbd2415cd	-0.040059853
53	0xbd7f62e4	-0.06235017
54	0x3d84d4b7	0.06485885
55	0x3d21e721	0.039527062
56	0x3d86c64b	0.0658079
57	0x3cd165e9	0.02556129
58	0xba990506	-0.0011674471
59	0x3d38e849	0.0451434
60	0x3d71df7a	0.059051014
61	0x3d050abe	0.032480948
62	0xbc003f36	-0.007827571
63	0xbc6ede29	-0.014579334
64	0xbcb67815	-0.022274056
65	0xbda98ccb	-0.08278807
66	0xbdb4baf9	-0.08824725
67	0x3c94cf68	0.018165305
68	0x3cc36ccf	0.023855595
69	0x3d290d81	0.041272644
70	0x3d154c2b	0.036449593
71	0xbd13f85e	-0.036125533
72	0x3bbbeb8a	0.0057348656
73	0x3d8a392e	0.067491874
74	0x3d6e755f	0.058217403
75	0x3bc18bd0	0.0059065595
76	0xbd78f3b0	-0.060779274
77	0xbd7fa798	-0.06241569
78	0xbd0f5bd2	-0.034999676
79	0x3d15aca3	0.036541592
80	0xbd06054c	-0.032719895
81	0x3cec5b67	0.028852178
82	0x3d750438	0.059818476
83	0x3da14700	0.0787487
84	0xbce7db20	-0.02830273
85	0xbdb48c25	-0.08815793
86	0x3d5ae44d	0.05344038
87	0x3d6f0d81	0.058362488
88	0x3bc49d01	0.0060001616
89	0x3d0e686c	0.034767553
90	0xbdab934a	-0.083777025
91	0xbd838ea3	-0.0642369
92	0xbd66379f	-0.05620539
93	0x3d10d72a	0.035361446
94	0xbdcadd53	-0.099054955
95	0xbc810ae8	-0.01575227
96	0x3d2f6d3c	0.042828783
97	0xbdaa916d	-0.08328519
98	0xbcabdda9	-0.02097972
99	0xbc8edfba	-0.017440666
100	0x3cdcd5c1	0.026957395
101	0xbda8e5b9	-0.08246941
102	0x3b319c44	0.0027101198
103	0x3c1327bb	0.00898164
104	0xbd0cb2fc	-0.03435038
105	0x3d7ab91b	0.061211687
106	0x3c7929fc	0.015207764
107	0xbd9438bf	-0.07237386
108	0xbcea59b5	-0.028607229
109	0x3d22b359	0.03972182
110	0x3de18292	0.110112324
111	0xbd522ecd	-0.051314164
112	0xbd17617f	-0.036958214
113	0x3c2499c7	0.010046429
114	0x3db3cfe7	0.087798886
115	0xbd4c9ca2	-0.049954064
116	0xbcb50a09	-0.022099512
117	0xbd1ae8b6	-0.037819587
118	0xbc142ac1	-0.009043396
119	0x3c8aedf3	0.016959166
120	0xbd4dfb0f	-0.050288256
121	0xbccacf8a	-0.024757165
122	0xbd83a76e	-0.06428419
123	0x3c92e457	0.017931147
124	0x3d0052dc	0.03132902
125	0x3d00a996	0.03141173
126	0x3b07d3c8	0.0020725597
127	0xbd37b92b	-0.044854324
128	0x3c1bb798	0.009504221
129	0x3ce3bc9c	0.027799897
130	0x3cba0499	0.02270727
131	0x3da6abf6	0.08138268
132	0x3d114fd7	0.03547653
133	0xbd2b691f	-0.0418483
134	0xbbdf1e32	-0.0068090195
135	0xbda8c8f3	-0.08241453
136	0xb8825024	-6.2138104e-05
137	0x3d044436	0.032291614
138	0xbc31090d	-0.0108053805
139	0x3cf4d3a6	0.029886078
140	0x3d1811db	0.037126403
141	0x3d6cc8fe	0.05780887
142	0x3d19d921	0.037560586
143	0x39877494	0.00025836064
144	0xbdabe375	-0.08392993
145	0x3d90cf9b	0.070708476
146	0xbd066a34	-0.032816127
147	0xbd428a20	-0.047495008
148	0xbd4876c6	-0.048941396
149	0x3c47605b	0.012168969
150	0x3da743a2	0.08167197
151	0x3c8af5cb	0.016962906
152	0xba6fca75	-0.0009147295
153	0xbc335d41	-0.010947526
154	0x3d6cd1ea	0.057817377
155	0x3cc11f4a	0.02357449
156	0xbba3583c	-0.0049848836
157	0x3d8ac585	0.06775955
158	0xbc849f2e	-0.016189184
159	0x3cad14cb	0.021128079
160	0x3d783473	0.060596894
161	0x3ce3e112	0.027817283
162	0xbca163ef	-0.019700972
163	0x3d9398f3	0.07206907
164	0xbc740c50	-0.014895514
165	0x3d743f88	0.0596309
166	0x3d387c67	0.045040514
167	0x3d77b89e	0.0604788
168	0xbcba4f15	-0.022742787
169	0xbc44376a	-0.011976102
170	0xbc4b5d96	-0.012412449
171	0x3ce839ec	0.028347932
172	0x3d601b55	0.054713566
173	0xbceb0804	-0.028690346
174	0x3cd684b6	0.026186328
175	0x3c812ba1	0.015767874
176	0xbda5af8c	-0.080901235
177	0x3c3d2fea	0.011547068
178	0x3d80cd06	0.06289105
179	0x3d359343	0.044329893
180	0xbc84b874	-0.016201235
181	0x3c5448b9	0.012956792
182	0xbc46baf3	-0.012129533
183	0xbc8f9a1d	-0.017529542
184	0x3c5a7f57	0.013336024
185	0x3c947d23	0.018126076
186	0x3cc09ab7	0.023511274
187	0xbca22e40	-0.019797444
188	0x3dba3480	0.09092045
189	0x3c10d369	0.008839467
190	0x3d90f99e	0.07078861
191	0x3d184810	0.0371781
192	0xbc338630	-0.010957286
193	0xbd0e8cd9	-0.03480229
194	0xbc65bd79	-0.014022225
195	0x3daa93ab	0.08328947
196	0xbc33761b	-0.0109534515
197	0xbc587ddb	-0.0132136
198	0x3d9022c4	0.07037881
199	0xbc082ad6	-0.008310994
200	0xbd8d2f18	-0.06893748
201	0xbd8703cd	-0.06592522
202	0xbc448210	-0.0119939
203	0xbd3e0ff2	-0.046401925
204	0xbcdfc501	-0.027315618
205	0x3d2c2188	0.042024165
206	0x3d94dd91	0.07268823
207	0xbd3bbbf4	-0.045833543
208	0x3d51d78e	0.05123096
209	0xbd583e02	-0.05279351
210	0x3d19c2b6	0.037539206
211	0x3d065be5	0.03280248
212	0x3cb86cc0	0.022512794
213	0xbaa9e8c9	-0.0012963052
214	0xbd84b8cd	-0.064805605
215	0xbd239641	-0.039938215
216	0x3cc096cd	0.023509407
217	0x3ca0825c	0.01959341
218	0xbd896758	-0.067091644
219	0x3d93892b	0.07203897
220	0x3d7ea5dc	0.062169895
221	0xbc60131a	-0.013676429
222	0x3d142013	0.0361634
223	0x3c3bae2e	0.011455102
224	0xbda07069	-0.078339405
225	0xbd2d6953	-0.042336773
226	0xbd2bea24	-0.04197134
227	0x3d90b129	0.070650406
228	0xbd9488b0	-0.072526336
229	0xbc481077	-0.012210957
230	0x3c2cc7ba	0.010545665
231	0xbcb42fe6	-0.021995496
232	0xbdbd0d6f	-0.09231078
233	0x3cae5556	0.021280926
234	0xbd0095d3	-0.031392884
235	0x3c924e29	0.017859535
236	0x3bd83900	0.006598592
237	0xbd135d12	-0.03597743
238	0xbd90f2cd	-0.070775606
239	0xbcd5f7f1	-0.026119204
240	0x3d3375ac	0.043813393
241	0xbd815a03	-0.063159965
242	0xbcda2efc	-0.026633732
243	0x3cb53aae	0.022122707
244	0x3d925ccd	0.071466066
245	0xbc3ff590	-0.0117162615
246	0xbcbf428c	-0.023347162
247	0xbbc24c1c	-0.005929483
248	0xbd148374	-0.036258176
249	0xbc332142	-0.010933222
250	0xbaf94fc4	-0.0019020964
251	0x3d773114	0.06034954
252	0xbdb4a3e4	-0.08820322
253	0xbd8a2335	-0.067449965
254	0xbbf50dd1	-0.0074784537
255	0xbd8bbaf6	-0.06822769

0.weight f4 [128, 12]
0	0xbe6308d1	-0.22171332
1	0x3b2bb773	0.0026201874
2	0xbe3bab65	-0.183271
3	0xbe8be9b4	-0.2732674
4	0x3e3ad991	0.18247057
5	0x3d9b828a	0.07593258
6	0xbdab0991	-0.08351434
7	0x3c3451b7	0.01100581
8	0xbe083e90	-0.13305116
9	0xbe32e7e4	-0.17471272
10	0x3ebc954f	0.36832663
11	0x3ea16aa4	0.31526673
12	0xbd3e2253	-0.046419453
13	0xbe24407b	-0.16040222
14	0xbe246f28	-0.16058028
15	0xbe29659e	-0.1654267
16	0x3d603940	0.054742098
17	0x3deedf75	0.11663715
18	0xbe77492c	-0.24149007
19	0xbe606582	-0.21913722
20	0xbe1912fe	-0.14948651
21	0x3e3fe6ba	0.18740359
22	0x3e636447	0.22206222
23	0x3e8a405b	0.27002224
24	0x3e05ae20	0.13054705
25	0x3e36f1ea	0.1786572
26	0xbe407b90	-0.18797135
27	0x3cd5f357	0.02611701
28	0xbeb6393a	-0.35590535
29	0xbe4943ab	-0.1965472
30	0xbe717e3c	-0.23583311
31	0xbe9ed441	-0.31021312
32	0x3d1ba9a1	0.038003568
33	0xbe1ac3c2	-0.15113738
34	0xbea7e876	-0.3279454
35	0xbe1daff1	-0.15399148
36	0xbd624c33	-0.05524845
37	0x3d2f85b0	0.042852104
38	0x3d03407c	0.03204392
39	0xbe1cb11c	-0.15301937
40	0xbd9f62b5	-0.07782499
41	0xbe05220d	-0.1300127
42	0xbe06a7fe	-0.13150021
43	0x3d11144d	0.03541975
44	0xbd1d7d8c	-0.03844981
45	0xbd832e15	-0.06405274
46	0x3e1b812c	0.15185994
47	0xbe17ff39	-0.14843453
48	0x3df31eb5	0.11871091
49	0x3e1240e6	0.1428257
50	0xbe4a3333	-0.19746093
51	0xbdb07f24	-0.08618
52	0x3d8756bd	0.06608341
53	0x3e6b6d1b	0.22990839
54	0x3ce66342	0.028123502
55	0x3e326fa3	0.17425399
56	0x3e522b43	0.20524316
57	0x3d2f9b5a	0.042872764
58	0x3e5f9bd6	0.2183679
59	0xbdabfec9	-0.08398206
60	0xbde4c01e	-0.11169456
61	0xbe5585b1	-0.2085178
62	0x3e016873	0.126375
63	0xbd39d580	-0.045369625
64	0xbd90ff4c	-0.07079944
65	0xbc87e1e6	-0.016587209
66	0xbe20ad60	-0.15691137
67	0xbdcb3f31	-0.09924162
68	0xbe1e9b8a	-0.15489021
69	0x3d298ac1	0.04139209
70	0x3d970951	0.07374824
71	0x3e75e1ae	0.24011871
72	0x3e6a49d8	0.22879732
73	0x3d61035c	0.054934844
74	0x3e21d2e7	0.15803109
75	0xbdd8f525	-0.105936326
76	0xbd0c2877	-0.034218278
77	0x3d8ec222	0.06970622
78	0xbd08e0fb	-0.033417683
79	0x3c2a475c	0.01039299
80	0xbe2e7217	-0.1703571
81	0x3db944b8	0.0904631
82	0xbe6a2b5b	-0.22868101
83	0x3e3ac614	0.18239623
84	0x3ad641c4	0.0016346504
85	0xbe83301c	-0.25622642
86	0x3e7e13c7	0.24812232
87	0x3d30fd06	0.043210052
88	0xbe2e41a4	-0.17017227
89	0xbe3ae024	-0.18249565
90	0xbd7cadbf	-0.061689135
91	0x3e6ec841	0.23318578
92	0x3c8e1ea2	0.017348591
93	0xbe8ccab2	-0.27498394
94	0x3da776f2	0.08176984
95	0x3e42e361	0.1903205
96	0xbe638220	-0.22217607
97	0xbd98842a	-0.07447083
98	0x3d8e0a84	0.069355994
99	0xbe2b877e	-0.16750905
100	0xbd67d8da	-0.05660329
101	0xbd0e8cb0	-0.03480214
102	0xbe4f86ce	-0.20266268
103	0x3c96c78e	0.018405702
104	0xbbabe855	-0.005246202
105	0x3df4ce22	0.11953379
106	0x3d2a0354	0.04150708
107	0xbe48de1d	-0.1961598
108	0x3e35df60	0.17760992
109	0xbe36dd0a	-0.17857757
110	0x3de3ee56	0.11129443
111	0x3c82ce72	0.015967581
112	0xbc7fadda	-0.015605414
113	0x3e840639	0.25785998
114	0xbe2edfb0	-0.17077518
115	0xbd89fceb	-0.067376934
116	0xbe89c028	-0.26904416
117	0xbe8968b2	-0.2683769
118	0x3db3fa3c	0.08787963
119	0xbe63a512	-0.22230938
120	0x3e2ec2cf	0.17066501
121	0x3e754402	0.23951724
122	0x3df96f36	0.12179415
123	0x3e84bc5e	0.25924963
124	0x3e08a1d6	0.13342986
125	0x3e0dfa85	0.13865097
126	0xbd210b6e	-0.03931754
127	0xbe3d5d1b	-0.18492548
128	0xbe0df391	-0.13862444
129	0xbe83597f	-0.25654218
130	0x3e895c91	0.26828435
131	0xbe66093c	-0.2246446
132	0xbd166ead	-0.036726642
133	0xbdfc7e02	-0.123287216
134	0xbdda71cf	-0.106662385
135	0x3da80a9b	0.08205148
136	0x3bab690b	0.005231028
137	0x3def6b1a	0.1169035
138	0xbdd7e5b6	-0.10541861
139	0x3e3e4132	0.18579558
140	0x3dfeae2c	0.124355644
141	0xbe1aee87	-0.15130053
142	0xbe6adf5f	-0.22936772
143	0xbd1ebb8a	-0.03875307
144	0x3d142211	0.0361653
145	0x3aa55a72	0.0012615456
146	0xbcd20c9a	-0.025640775
147	0xbe778795	-0.24172814
148	0x3e77591a	0.24155083
149	0xbe94f731	-0.29094842
150	0x3df3a123	0.11895969
151	0x3cf8e3e7	0.03038211
152	0xbdc9f3a7	-0.09860926
153	0x3e4fd9c9	0.20297922
154	0x3e5ec500	0.21754837
155	0xbe933d57	-0.28757736
156	0x3ca2d789	0.019878166
157	0x3b35ebbe	0.0027758921
158	0xbd050dfc	-0.03248404
159	0x3e040021	0.12890674
160	0x3d7faef6	0.062422715
161	0xbe01ca96	-0.12674937
162	0xbe264f9f	-0.1624131
163	0xbdcb1259	-0.09915609
164	0xbd32de6d	-0.043669153
165	0xbe129439	-0.14314355
166	0x3c31c266	0.010849571
167	0xbd430a64	-0.04761733
168	0xbe452a2d	-0.1925437
169	0x3d0964c0	0.03354335
170	0xbce8cdd3	-0.028418457
171	0x3e2d7bbf	0.16941737
172	0xbe5497cd	-0.20761032
173	0xbca07257	-0.019585771
174	0x3e90e359	0.28298452
175	0x3d9cb55b	0.07651778
176	0x3d807be5	0.06273631
177	0x3e4710eb	0.19440047
178	0xbea1c0fe	-0.31592554
179	0xbdbba045	-0.09161428
180	0xbe3b95d6	-0.18318877
181	0x3d35dba3	0.044398915
182	0x3be69b1e	0.0070375344
183	0x3d5e6c0a	0.054302253
184	0xbd927558	-0.07151288
185	0xbe0755ba	-0.13216296
186	0xbda5aef1	-0.08090008
187	0xbd89e076	-0.06732266
188	0x3caddea1	0.021224322
189	0xbe847143	-0.25867662
190	0x3e405923	0.18784003
191	0xbe3e7da1	-0.18602611
192	0xbd6bca99	-0.05756626
193	0xbe20437d	-0.15650745
194	0x3d11d315	0.035601694
195	0xbe90a802	-0.2825318
196	0x3e61d491	0.22053744
197	0x3d37576e	0.044761114
198	0xbc4fdc1a	-0.012686754
199	0x3b8426b4	0.004032934
200	0xbe505e4d	-0.20348473
201	0x3c141a78	0.009039514
202	0xbe27a82a	-0.16372743
203	0xbd320d68	-0.043469816
204	0x3e91cf08	0.28478265
205	0x3e121d3f	0.14268969
206	0x3d82f7a4	0.0639489
207	0x3e14cc07	0.14530955
208	0x3e89c38d	0.26907006
209	0x3d94e895	0.07270924
210	0xbd09c233	-0.03363247
211	0xbda2beb8	-0.07946533
212	0x3c8c41f7	0.017121298
213	0xbdc47945	-0.09593443
214	0x3c834de0	0.016028345
215	0x3e29a02a	0.16565004
216	0x3e1c248b	0.15248315
217	0x3e53cfd2	0.20684746
218	0xbdb9b52f	-0.09067761
219	0xbce2d665	-0.027690122
220	0xbddefc07	-0.10887914
221	0x3ca481ff	0.020081518
222	0x3d8beeb3	0.06832638
223	0xbe32cf1d	-0.1746182
224	0xbe6d5509	-0.2317697
225	0x3ca585cb	0.020205399
226	0x3e56a5ea	0.20961729
227	0x3e425987	0.18979464
228	0xbd6989f6	-0.057016335
229	0x3cb686e6	0.022281121
230	0x3dd4d230	0.103916526
231	0xbe2ef817	-0.17086826
232	0x3e72dae4	0.23716313
233	0xbd80c86e	-0.06288229
234	0x3dc17d2c	0.09447703
235	0x3e60fa68	0.21970522
236	0x3c38e2b4	0.011284519
237	0x3e198668	0.14992678
238	0xbe42313f	-0.18964098
239	0xbe89f196	-0.26942128
240	0x3db70731	0.089369185
241	0x3e0e659a	0.13905945
242	0xbc953057	-0.018211527
243	0xbe4dda2c	-0.20102757
244	0x3d03caa0	0.03217566
245	0x3df0fa48	0.11766487
246	0x3df6e2b9	0.12054963
247	0xbe6640f2	-0.22485712
248	0xbbe21a11	-0.00690008
249	0x3e3b3fca	0.18286052
250	0xbdfd7492	-0.1237575
251	0x3dd183df	0.102302305
252	0xbe332c1a	-0.17497292
253	0xbe987567	-0.2977707
254	0xbe55fb8f	-0.20896743
255	0x3e6f6e08	0.23381817

0.bias f4 [128]
0	0x3e1cbfd8	0.15307558
1	0xbe8a85aa	-0.27055103
2	0xbe2e9391	-0.1704848
3	0x3e7d4bb2	0.24735907
4	0x3e59e820	0.21279955
5	0x3e6727f7	0.22573839
6	0x3ce9963d	0.028514022
7	0xbdaca817	-0.08430498
8	0x3e8d1b0f	0.27559707
9	0x3dd56a6a	0.104206875
10	0x3e3caae1	0.1842456
11	0x3e18c812	0.14920071
12	0x3ddb0497	0.10694235
13	0x3e2f0b94	0.1709426
14	0xbe8466bd	-0.25859633
15	0x3e4f3a03	0.20236973
16	0x3cf6b25c	0.030114345
17	0x3e21cf13	0.15801649
18	0x3db4d7ff	0.088302605
19	0x3e2468cd	0.16055603
20	0x3e607096	0.21917948
21	0xbe9c1020	-0.30481052
22	0xbdd5b738	-0.10435337
23	0x3e713ce5	0.23558386
24	0x3e7cc4f2	0.24684504
25	0xbc125ecc	-0.008933734
26	0xbd5d7fb6	-0.054076873
27	0xbe517c11	-0.20457484
28	0xbd1f7e5f	-0.038938876
29	0x3e332f24	0.17498451
30	0xbda6a259	-0.08136434
31	0x3e82729b	0.25478062
32	0xbdd9d438	-0.10636181
33	0xbde01973	-0.10942354
34	0x3df52fe0	0.11972022
35	0xbe0ea83e	-0.13931367
36	0x3e31c83c	0.1736154
37	0x3e765792	0.24056843
38	0xbc1d5104	-0.009601835
39	0xbda6c4c8	-0.08143002
40	0x3df75892	0.1207744
41	0xbe6ba08b	-0.23010461
42	0x3e706701	0.23476793
43	0xbdd7ffc1	-0.10546828
44	0xbe386b37	-0.18009649
45	0x3d47f694	0.04881914
46	0xbe6e2b12	-0.23258618
47	0x3e208db0	0.1567905
48	0x3e946337	0.28981945
49	0xbe88729f	-0.2664995
50	0x3d2381f4	0.039918855
51	0x3d0791da	0.03309808
52	0xbe0ec78d	-0.1394331
53	0xbd8330be	-0.06405781
54	0x3e7c98bb	0.24667637
55	0xbe3d5739	-0.18490304
56	0x3e234b2a	0.15946642
57	0x3d484473	0.048893403
58	0x3d542f5c	0.051802978
59	0xbe9e6458	-0.3093593
60	0x3e0c8464	0.13722378
61	0xbd603d9e	-0.054746263
62	0xbe98f93c	-0.2987765
63	0x3d6d0e5c	0.057875022
64	0x3d7b3dc9	0.06133822
65	0x3e06aa79	0.13150968
66	0x3e8725f3	0.2639614
67	0xbb68bb45	-0.0035512012
68	0xbe45b8a7	-0.1930872
69	0xbe45908d	-0.19293423
70	0xbe603b07	-0.21897517
71	0xbe8a0605	-0.26957718
72	0xbe402c87	-0.18766986
73	0x3e985db2	0.29758984
74	0xbcfe26c1	-0.031024339
75	0x3e1701dc	0.14746803
76	0x3e5c283d	0.21499725
77	0xbe3b4d2b	-0.18291156
78	0xbe77a9dd	-0.24185891
79	0xbd70ad9f	-0.058759328
80	0xbdb9c67f	-0.09071063
81	0xbdcc9c3f	-0.09990739
82	0x3cb52db6	0.022116523
83	0xbe2e98b9	-0.17050447
84	0xbe489d0b	-0.19591157
85	0xbd40a7c9	-0.047035012
86	0x3d1f5ac9	0.03890494
87	0xbdec5f52	-0.115416184
88	0x3d66e3cb	0.056369584
89	0xbe91f6bf	-0.28508565
90	0x3e99aca7	0.30014536
91	0xbd3bea2f	-0.04587763
92	0xbe7545e4	-0.23952442
93	0x3dbbb264	0.09164885
94	0xbe98afc2	-0.29821593
95	0xbe232445	-0.15931804
96	0x3e79c65b	0.24392073
97	0xbdc37f53	-0.095457695
98	0xbe422a96	-0.18961558
99	0xbe8dfc31	-0.2773147
100	0xbe07fd93	-0.13280325
101	0xbd9c02ea	-0.07617743
102	0xbe6e8ccc	-0.23295897
103	0xbe794957	-0.24344383
104	0x3e47dac1	0.19517042
105	0xbe387ae7	-0.18015634
106	0x3e814b99	0.2525299
107	0xbe5f3a0b	-0.21799485
108	0xbd6b02fe	-0.0573759
109	0xbcdba714	-0.026813067
110	0xbe2d7abe	-0.16941354
111	0xbd8190ba	-0.063264325
112	0x3e0aac23	0.13542227
113	0xbe9fbfd9	-0.31201056
114	0x3e41b27c	0.18915743
115	0x3e51945b	0.2046675
116	0x3e568852	0.2095044
117	0x3ba1436a	0.0049213665
118	0xbe3e26a4	-0.18569428
119	0x3d78994b	0.060693067
120	0xbe88476d	-0.26616994
121	0xbe441ef5	-0.19152434
122	0x3e6cc9d0	0.2312386
123	0xbbc95d79	-0.006145176
124	0x3dc5f184	0.09665206
125	0x3e825b3f	0.2546024
126	0x3d0e7846	0.03478267
127	0xbe75cc7b	-0.24003784
